model/model.pth (torch, 17216 bytes, 4 tensors)

linear1.weight f4 [256, 11]
0	0xbe90fbb4	-0.28317034
1	0xbe473ba5	-0.19456346
2	0xbe439ef0	-0.19103599
3	0x3d9a27eb	0.07527145
4	0xbe7c717a	-0.24652663
5	0x3e9d0863	0.3067046
6	0xbe69c6eb	-0.22829787
7	0x3e036ff8	0.12835681
8	0x3e323283	0.17402081
9	0x3def67f4	0.11689749
10	0xbd982f76	-0.074309275
11	0x3d2cd74c	0.04219751
12	0x3e14797d	0.14499469
13	0xbdd0701a	-0.10177632
14	0xbcea9c65	-0.028639028
15	0xbe8e7e2e	-0.27830642
16	0xbe12d9f3	-0.14340954
17	0x3d89e170	0.06732452
18	0xbd07ef1c	-0.033187017
19	0x3e89f7fc	0.2694701
20	0x3d26aa15	0.040689547
21	0x3e815d44	0.2526647
22	0x3d62357c	0.055226788
23	0x3e7f7499	0.24946822
24	0x3e60c4cd	0.21950074
25	0x3d2a222b	0.04153649
26	0xbe834048	-0.2563498
27	0x3e8b87c4	0.27252018
28	0xbdf9c2df	-0.12195372
29	0x3e299691	0.16561343
30	0x3e62542b	0.2210242
31	0x3e955ab9	0.29170778
32	0xbea2058f	-0.31644866
33	0xbe5cb063	-0.21551661
34	0x3e7631c3	0.2404242
35	0xbde104f9	-0.109872766
36	0x3d96998b	0.07353505
37	0x3e702d26	0.23454723
38	0xbe42ee0d	-0.19036122
39	0x3daed8f0	0.08537471
40	0x3dbee31c	0.093206614
41	0xbd8b0f1b	-0.067899905
42	0x3de94cf7	0.11391633
43	0xbe499d64	-0.19688946
44	0xbc830980	-0.01599574
45	0x3deeb6af	0.11655938
46	0x3e698083	0.2280293
47	0xbe211bb2	-0.15733221
48	0x3e98cf48	0.29845643
49	0xbe346861	-0.17617942
50	0xbe8aaf83	-0.2708703
51	0x3e1761cc	0.147834
52	0x3e046374	0.12928563
53	0xbe00fffb	-0.12597649
54	0x3c75ae1b	0.014995123
55	0xbd834ff7	-0.064117365
56	0x3e29ad4a	0.16570011
57	0xbe312204	-0.17298132
58	0x3e0bd964	0.13657147
59	0xbdfed0db	-0.1244218
60	0xbe6730c3	-0.22577195
61	0x3e5fc459	0.21852244
62	0xbe6a35dd	-0.2287211
63	0x3e91266e	0.28349632
64	0x3e12466d	0.14284678
65	0xbd6ce020	-0.05783093
66	0xbe8bebe1	-0.273284
67	0xbe994fb3	-0.29943618
68	0xbdd6680c	-0.10469064
69	0xbe863b93	-0.26217327
70	0x3e54cb7f	0.20780753
71	0x3dd66c48	0.10469872
72	0xbda125c8	-0.07868534
73	0x3d95c2ac	0.07312521
74	0xbd664580	-0.056218624
75	0x3e441af7	0.19150911
76	0xbe6537f3	-0.22384624
77	0xbe55be19	-0.20873298
78	0x3d59cbf1	0.05317301
79	0x3e2416a2	0.16024259
80	0x3e244fa6	0.16046008
81	0x3e46a752	0.19399765
82	0xbe28e2f6	-0.16492829
83	0x3e5b4485	0.21412857
84	0xbe362e14	-0.17791015
85	0x3e93c42e	0.2886061
86	0xbe16c1cb	-0.14722364
87	0xbe146c18	-0.1449436
88	0x3d96c278	0.07361311
89	0x3e7a74ef	0.24458669
90	0x3dd327e0	0.1031034
91	0x3e5934a3	0.21211486
92	0xbd583c12	-0.052791663
93	0x3dd89ea7	0.105771355
94	0xbe786854	-0.24258548
95	0xbb5386f8	-0.0032276493
96	0xbe907eed	-0.28221837
97	0xbde4418c	-0.111453146
98	0x3e655071	0.22393967
99	0x3c6159e0	0.013754338
100	0x3e894432	0.2680984
101	0x3e5d6514	0.2162059
102	0xbde0eb00	-0.10982323
103	0xbe84b2ee	-0.25917763
104	0x3cd113a0	0.025522053
105	0xbe3321f9	-0.17493428
106	0xbdb84e4a	-0.089993075
107	0xbe973894	-0.29535353
108	0x3e2a1e80	0.16613197
109	0xbe3914e8	-0.18074381
110	0x3e707456	0.23481879
111	0x3e929b20	0.28633976
112	0x3cdda731	0.027057262
113	0xbe9760ef	-0.29566142
114	0xbe4a3f77	-0.19750772
115	0xbd84ff07	-0.06493955
116	0x3e1849f0	0.14871955
117	0x3d5c88c7	0.05384138
118	0x3e0191c2	0.12653258
119	0x3d6386a2	0.055548318
120	0xbe5ba3f1	-0.21449257
121	0xbda2aeb6	-0.0794348
122	0x3e4cce70	0.20000625
123	0xbe32a35e	-0.17445132
124	0xbd9cea30	-0.07661855
125	0x3dc8775c	0.09788391
126	0x3dcc7208	0.09982687
127	0xbc9d2080	-0.019180536
128	0xbe061494	-0.13093787
129	0x3d972ad4	0.07381216
130	0xbdb4a3d0	-0.08820307
131	0xbda4c3f2	-0.08045186
132	0x3d72f97f	0.05931997
133	0xbb86fe76	-0.0041196896
134	0x3d0b7322	0.034045346
135	0xbe6a0736	-0.22854313
136	0x3c16c7b4	0.009202886
137	0xbdba5280	-0.09097767
138	0x3e621f57	0.22082268
139	0x3daf5e76	0.08562939
140	0x3e456a85	0.19278915
141	0x3e3f4655	0.18679173
142	0x3bd28e14	0.0064256284
143	0xbdd8c71a	-0.105848506
144	0x3be76680	0.0070617795
145	0x3e3fbc94	0.1872428
146	0xbe89832f	-0.26857898
147	0x3e3cb303	0.18427663
148	0x3e71f93a	0.23630229
149	0xbe2e835c	-0.17042297
150	0x3e2d7e45	0.16942699
151	0xbe7e3de8	-0.24828303
152	0x3d102df0	0.03520006
153	0xbbfa70d5	-0.007642845
154	0x3caba210	0.0209513
155	0x3c871466	0.016489219
156	0xbe7ccdea	-0.24687925
157	0x3e91d0f3	0.28479728
158	0xbe1ec0f6	-0.15503296
159	0x3cd9c070	0.02658102
160	0xbe5b59a0	-0.21420908
161	0x3d6d1d46	0.057889245
162	0x3c9152da	0.017739702
163	0xbe38d030	-0.18048167
164	0xbdbd8dbb	-0.092555486
165	0xbdab29b4	-0.083575636
166	0x3e96def8	0.29466987
167	0xbe8ffcc0	-0.2812252
168	0xbe635016	-0.22198519
169	0x3e84556f	0.2584643
170	0xbda0bf28	-0.0784896
171	0xbd3c3860	-0.0459522
172	0xbd12b3a4	-0.03581585
173	0xbd2da519	-0.042393778
174	0x3cd7d38e	0.026345994
175	0x3e3a3ce0	0.18187284
176	0x3dfa515a	0.12222548
177	0xbc386681	-0.011254908
178	0x3ddba414	0.10724655
179	0x3e85f427	0.26162836
180	0xbe929415	-0.28628603
181	0x3d77b8e3	0.060479056
182	0xbe76fc30	-0.2411964
183	0xbe423575	-0.18965705
184	0x3e2e4be3	0.17021136
185	0xbd258d34	-0.040417865
186	0x3e55a448	0.2086345
187	0xbe0c78ee	-0.13718006
188	0xbe96e5b6	-0.2947213
189	0xbe5eb72a	-0.21749559
190	0x3da6774b	0.08128222
191	0x3e1bedfe	0.15227506
192	0x3c04ba29	0.008101025
193	0xbe4708c0	-0.19436932
194	0x3e37b2eb	0.17939346
195	0xbe4749f1	-0.194618
196	0xbc80c9de	-0.015721258
197	0xbe67b934	-0.22629243
198	0x3e822d12	0.2542501
199	0xbe257030	-0.16156077
200	0xbd9f86b2	-0.07789363
201	0x3c72b1a0	0.014812857
202	0xbda30390	-0.07959664
203	0x3d914afc	0.0709438
204	0xbe4212b8	-0.18952453
205	0xbe1d4164	-0.15356976
206	0xbd9afaf4	-0.07567397
207	0x3b7fdd00	0.0039041638
208	0xbe831786	-0.25603884
209	0x3dd7c788	0.105361044
210	0xbe21bdd2	-0.15795067
211	0xbd091bb0	-0.03347367
212	0x3c99ba0a	0.018765468
213	0x3e6647cc	0.22488326
214	0xbdbe2ed4	-0.092862755
215	0xbd7316c4	-0.059347883
216	0x3e68e5ef	0.22743963
217	0xbe0bbb53	-0.13645677
218	0xbe7221d3	-0.23645715
219	0xbe52441b	-0.20533793
220	0xbe0eb27c	-0.13935274
221	0x3dbb451b	0.0914404
222	0xbe967d48	-0.29392457
223	0x3e5da986	0.216467
224	0xbd79f8f9	-0.061028454
225	0xbddc75ad	-0.107646324
226	0xbe40d038	-0.18829429
227	0xbe5a8943	-0.21341424
228	0x3e8502b5	0.25978628
229	0x3dd7ce9e	0.10537456
230	0xbe8bfde5	-0.27342144
231	0x3c908230	0.017640203
232	0x3e926144	0.28589833
233	0x3e5dc164	0.21655804
234	0xbae48ee0	-0.00174376
235	0x3d94b512	0.07261099
236	0x3e4f2554	0.20229083
237	0xbdd47a84	-0.103749305
238	0xbe24aef8	-0.1608237
239	0xbe9a2ef6	-0.30113953
240	0xbde2dbd6	-0.11077087
241	0x3e8fefcb	0.28112635
242	0xbe6d6960	-0.23184729
243	0x3e051df5	0.12999709
244	0x3d9b7fe5	0.07592753
245	0xbe7d6c03	-0.24748234
246	0xbd07400f	-0.033020075
247	0xbe22913c	-0.15875715
248	0x3dd226cd	0.10261307
249	0x3c822b29	0.015889721
250	0x3e897862	0.26849657
251	0xbe21f508	-0.15816128
252	0x3e739347	0.2378665
253	0xbe74b270	-0.23896194
254	0x3db01670	0.085980296
255	0x3e951a52	0.29121643

linear1.bias f4 [256]
0	0x3e8aeb3e	0.271326
1	0xba107752	-0.0005510944
2	0xbd7bd3e2	-0.061481364
3	0xbe1b8f55	-0.15191396
4	0x3d9a3e2e	0.07531391
5	0x3e51c07b	0.20483582
6	0xbe971692	-0.29509407
7	0x3e1e4d73	0.15459232
8	0x3e49d679	0.19710721
9	0xbd2fb520	-0.042897344
10	0x3e8609ef	0.26179454
11	0xbe97b709	-0.29631832
12	0x3cf36e56	0.029715698
13	0xbe28e1f1	-0.1649244
14	0x3e605c85	0.21910293
15	0xbe82355a	-0.2543133
16	0x3c25147d	0.010075686
17	0x3d854d84	0.065089256
18	0xbe0fbd7b	-0.14037125
19	0x3d0e681c	0.034767255
20	0xbdb99275	-0.090611376
21	0x3cc2418d	0.023712898
22	0xbd95b10d	-0.073091604
23	0xbe6bdd1a	-0.23033562
24	0x3dc227da	0.09480257
25	0x3e92e625	0.2869121
26	0x3e38ba30	0.18039775
27	0xbe631a8d	-0.22178097
28	0x3e97f6d2	0.29680496
29	0x3db6cecc	0.08926162
30	0x3d575c7d	0.052578438
31	0x3e7ebb06	0.24876031
32	0x3e277a84	0.1635533
33	0xbe7b8743	-0.24563317
34	0x3e002e77	0.12517725
35	0xbe6357df	-0.22201489
36	0x3e5edc32	0.21763685
37	0x3cd5f949	0.026119845
38	0x3daf622a	0.08563645
39	0xbe37a06f	-0.17932294
40	0xbe36708f	-0.17816375
41	0xbe709f2d	-0.2349822
42	0x3e7905dc	0.24318641
43	0xbe91502f	-0.28381488
44	0xbe387cc2	-0.18016341
45	0xbe946789	-0.2898524
46	0xbcbb4e69	-0.022864537
47	0xbe3190f8	-0.17340457
48	0xbe92b521	-0.28653815
49	0x3e86b1b1	0.26307443
50	0x3d7074f0	0.05870527
51	0xbdee2a65	-0.1162918
52	0xbe7039f6	-0.2345961
53	0x3cdcaa22	0.026936594
54	0xbe454071	-0.19262864
55	0x3dc48fe6	0.09597759
56	0x3e825585	0.2545587
57	0xbc1041ce	-0.008804752
58	0x3d6d7fdb	0.05798326
59	0xbda34902	-0.079729095
60	0xbe013053	-0.1261609
61	0xbdaa9730	-0.08329618
62	0xbde9e75f	-0.11421084
63	0xbe618a97	-0.22025524
64	0xbe807098	-0.25085902
65	0x3e480197	0.19531856
66	0x3e60a760	0.21938848
67	0xbe924dc1	-0.28574947
68	0x3e72f1eb	0.23725097
69	0xbdfc04f5	-0.12305633
70	0xbcd47434	-0.025934316
71	0x3e10fbd4	0.14158565
72	0x3e0c5b1c	0.1370663
73	0xbe41b731	-0.18917538
74	0xbe829d44	-0.2551061
75	0x3e83c202	0.25733954
76	0x3d43c84f	0.04779845
77	0xbe6f225d	-0.23352952
78	0xbe04bc3e	-0.12962434
79	0xbe40581c	-0.18783611
80	0x3e17953b	0.1480302
81	0xbe021bbf	-0.12705897
82	0x3e0b3a92	0.13596562
83	0xbe7921bf	-0.2432928
84	0xbe25ab0d	-0.16178532
85	0xbe411c44	-0.18858439
86	0xbd951c64	-0.07280806
87	0xbe30a6a1	-0.17251064
88	0xbe0a3e0c	-0.13500232
89	0xbe5712d1	-0.21003272
90	0x3e34fb19	0.17673911
91	0x3d418bae	0.04725235
92	0x3d400cf5	0.046887357
93	0xbd8c2cd8	-0.06844491
94	0x3e3d6746	0.18496427
95	0xbc3029b0	-0.010752127
96	0xbdda8cb0	-0.10671365
97	0x3e1204f1	0.14259697
98	0xbd9cb285	-0.076512374
99	0x3df15168	0.11783105
100	0x3e5eb592	0.21748951
101	0x3e412dbe	0.18865106
102	0x3e96aa76	0.29426926
103	0x3e5f5499	0.21809615
104	0x3e47b7cf	0.19503711
105	0xbe1172ba	-0.14203921
106	0xbd6bae1e	-0.057539098
107	0xbe031904	-0.12802511
108	0xbcde9545	-0.027170787
109	0x3d1f4587	0.038884666
110	0x3e771f0d	0.24132939
111	0xbe1a0ac3	-0.15043168
112	0x3dd58811	0.10426343
113	0xbe85bd94	-0.261212
114	0x3e965520	0.2936182
115	0x3e1593ae	0.14607117
116	0x3e807096	0.25085896
117	0x3e921f46	0.28539485
118	0x3d183553	0.03716023
119	0x3dbe2c8d	0.09285841
120	0x3e925e6a	0.28587657
121	0x3e318a9c	0.17338032
122	0xbdbef0a2	-0.09323241
123	0x3d66eb94	0.05637701
124	0x3e27a77a	0.16372481
125	0xbd976e99	-0.07394142
126	0xbe5e92f4	-0.21735746
127	0xbba7c2e6	-0.0051196693
128	0xbe828852	-0.2549463
129	0xbdb9c280	-0.09070301
130	0x3d82f0b9	0.063935705
131	0xbd947805	-0.072494544
132	0xbe1f1f2d	-0.15539236
133	0x3e839ed8	0.25707126
134	0xbe85225f	-0.26002786
135	0x3d8d5493	0.06900897
136	0x3e324262	0.17408136
137	0xbdf34960	-0.118792295
138	0xbe301ad0	-0.17197728
139	0xbe6746c9	-0.22585596
140	0x3e4d2d27	0.20036756
141	0xbe576888	-0.2103597
142	0xbe5a4bb7	-0.21317945
143	0xbdc1e58c	-0.09467611
144	0xbdd6070d	-0.104505636
145	0x3e823d32	0.25437313
146	0x3d7f3a19	0.062311266
147	0xbe0173ee	-0.1264188
148	0x3e613e9b	0.21996538
149	0xbe692f8b	-0.22772042
150	0x3e382231	0.17981793
151	0x3dcdab31	0.10042418
152	0xbe2b5e75	-0.16735251
153	0x3e8d1722	0.2755671
154	0x3da9eb26	0.08296804
155	0x3e062952	0.131017
156	0x3d53e98a	0.051736392
157	0x3e7c95c6	0.24666509
158	0x3dae33b3	0.085059546
159	0xbddc5340	-0.10758066
160	0xbe82512b	-0.2545255
161	0x3dcb3466	0.099221036
162	0xbe35f763	-0.17770152
163	0x3e4336b3	0.19063835
164	0x3d4e9f70	0.05044502
165	0xbe499e5b	-0.19689314
166	0x3dad45b8	0.084605634
167	0xbd990601	-0.07471848
168	0x3dcaeb71	0.09908188
169	0x3e9254a3	0.28580198
170	0xbd9e0626	-0.077160165
171	0x3d0a3135	0.033738334
172	0x3e3eb571	0.18623902
173	0x3e641620	0.22274065
174	0x3dbaad44	0.09115079
175	0x3e84631a	0.25856858
176	0x3e14c3c2	0.145278
177	0x3d816c60	0.06319499
178	0xbe6b0405	-0.22950752
179	0x3cbf4d1b	0.023352196
180	0xbe8d4d24	-0.27597916
181	0x3e087b62	0.13328317
182	0x3e439453	0.1909955
183	0xbe053950	-0.13010144
184	0xbdfcf943	-0.123522304
185	0xbd857beb	-0.06517776
186	0x3de2b25c	0.110691756
187	0x3d71b80b	0.059013408
188	0xbd9ab972	-0.07554902
189	0x3da94f71	0.08267105
190	0x3e141224	0.14460045
191	0xbe895e91	-0.2682996
192	0xbe6f1abc	-0.23350042
193	0x3cf41c94	0.029798783
194	0x3e805611	0.25065663
195	0x3dfcf077	0.123505525
196	0x3e9641a2	0.2934695
197	0xbc3b2f49	-0.011424848
198	0x3e87a781	0.26494983
199	0x3d4bf23f	0.04979157
200	0xbe41c5c6	-0.18923101
201	0x3e305cfa	0.17222968
202	0xbe81a8a3	-0.25323972
203	0xbdeb913d	-0.115023114
204	0xbe1d96c7	-0.15389548
205	0xbe43001e	-0.19043013
206	0xbd4579c8	-0.048211843
207	0x3e9011cb	0.28138575
208	0x3ddf78d6	0.109117195
209	0x3e5da826	0.21646175
210	0x3e2dfcd9	0.16990985
211	0xbe506811	-0.20352198
212	0xbe957ea6	-0.29198188
213	0xbe49d905	-0.19711693
214	0x3e327d5b	0.17430632
215	0xbdc84b84	-0.097800285
216	0xbdad5e40	-0.084652424
217	0xbe5a68f0	-0.21329093
218	0x3ddb9a62	0.107228056
219	0xbe75dd0c	-0.24010104
220	0x3e80ba01	0.2514191
221	0xbe0ad5fe	-0.13558194
222	0xbe4ab287	-0.19794665
223	0xbe3ec2b9	-0.18628968
224	0xbe33dc41	-0.17564489
225	0x3e59a2c1	0.21253492
226	0xbe896771	-0.26836732
227	0xbe016bbc	-0.12638754
228	0x3e0c6d22	0.13713506
229	0x3e1b1b9e	0.15147254
230	0xbe945aab	-0.28975424
231	0x3e9774c4	0.29581273
232	0xbd98a423	-0.074531816
233	0xbe0bc170	-0.1364801
234	0x3e754188	0.2395078
235	0xbd49498b	-0.0491424
236	0xbd9ca5ee	-0.07648836
237	0x3d1f721a	0.038927175
238	0xbd876b3a	-0.06612249
239	0x3deba492	0.11505999
240	0x3d8436b7	0.064557485
241	0x3d7838de	0.060601108
242	0x3e93ccbd	0.2886714
243	0x3e3e6f34	0.18597108
244	0xbe7111dc	-0.23541969
245	0xbe8e7609	-0.2782443
246	0x3e4f12c2	0.20222
247	0xbe8e5c8e	-0.2780499
248	0x3d5d05ec	0.053960726
249	0xbe5b02fd	-0.21387859
250	0x3e02e676	0.12783226
251	0x3dc59508	0.09647566
252	0x3e30d6b1	0.17269398
253	0xbe3406ea	-0.17580763
254	0xbe9a85dd	-0.30180255
255	0x3e892961	0.26789382

linear2.weight f4 [3, 256]
0	0xbd78b7fd	-0.06072234
1	0xbc0f62c5	-0.008751576
2	0xbc919131	-0.017769428
3	0xbc64d4dd	-0.013966766
4	0x3c5f99b5	0.013647486
5	0xbca5bdee	-0.020232167
6	0x3cc6d44c	0.024271153
7	0x3bff769c	0.0077961218
8	0x3d64a5a8	0.055822045
9	0x3b860950	0.0040904656
10	0x3c6abe64	0.014327619
11	0x3cd868b0	0.026417106
12	0xbbbc7b8b	-0.005752032
13	0x3cd5863b	0.026064983
14	0x3d51a2b2	0.05118055
15	0xbd04a49e	-0.032383554
16	0x3d135fda	0.035980083
17	0xbd7c1540	-0.061543703
18	0x3bbafb60	0.0057062358
19	0x3b216cea	0.0024631568
20	0xbcb222ba	-0.021745075
21	0xbb933730	-0.004492663
22	0x3c41ea3f	0.011835634
23	0xbd61b848	-0.055107385
24	0xbd92b093	-0.07162585
25	0xbcc4cac0	-0.02402246
26	0xbd4c98fe	-0.049950592
27	0x3d21d32d	0.039508034
28	0x3d21d239	0.039507125
29	0x3d327c55	0.043575604
30	0xbd27d716	-0.040976606
31	0x3d5c1521	0.053731088
32	0xbd37e0bb	-0.044892054
33	0xbd5c9ff7	-0.053863492
34	0xbba9e364	-0.005184578
35	0x3c889436	0.016672235
36	0xbbd45a0d	-0.0064804615
37	0x3d29bc76	0.041439496
38	0xbd2a7612	-0.041616507
39	0x3d56b53b	0.05241893
40	0xbc636d33	-0.013881016
41	0x3d0651f0	0.032792985
42	0x3d69a312	0.05704028
43	0x3d03008a	0.031982936
44	0xbc6f4b24	-0.014605317
45	0x3ba5ca54	0.00505952
46	0xbc65cab6	-0.014025381
47	0x3bf1da70	0.007380776
48	0xbb0a52cd	-0.0021106482
49	0x3cc76ecb	0.024344822
50	0xbd4dce4d	-0.050245572
51	0xbd0516ea	-0.032492556
52	0xbd4e1f49	-0.050322805
53	0xbd6b5eb0	-0.057463348
54	0xbd3f46f8	-0.04669854
55	0x3c222514	0.009896535
56	0x3d3eec73	0.046612214
57	0x3cf4f005	0.029899606
58	0xbd5dd58d	-0.054158736
59	0x3cedf16a	0.02904578
60	0x3c96657f	0.018358944
61	0x3d14542a	0.036213078
62	0xbd200430	-0.039066494
63	0x3c9fd377	0.019510014
64	0xbb54a3a0	-0.003244616
65	0xbcefd2df	-0.029275356
66	0xbd25fcca	-0.04052428
67	0x3d17dc05	0.03707506
68	0x3ca88e6b	0.020575723
69	0xbd8215ec	-0.063518375
70	0xbc476710	-0.012170568
71	0xbd738bf6	-0.05945965
72	0xbc14ce99	-0.00908246
73	0xbce9d41b	-0.028543523
74	0xbcdb8810	-0.026798278
75	0x3d2e6920	0.042580724
76	0x3c7e84b2	0.015534567
77	0xbd1988bb	-0.037483912
78	0x3d205a88	0.039148837
79	0x3d74319c	0.059617624
80	0xbd877351	-0.06613792
81	0x3d4474dd	0.047963012
82	0x3cb6dbcc	0.022321604
83	0x3d083955	0.0332578
84	0x3ce834fc	0.028345577
85	0xbd64e49e	-0.05588209
86	0xbb683fc5	-0.00354384
87	0x3d2feffb	0.042953473
88	0x3b40e6bb	0.00294344
89	0xbd66114c	-0.05616884
90	0xbc572c35	-0.013133098
91	0xbd556161	-0.05209482
92	0x3d5c1082	0.05372668
93	0xbcf23ccb	-0.029570004
94	0x3beea7ba	0.007283178
95	0x3d4d5745	0.050132055
96	0xbd5e508f	-0.054276045
97	0xbcd3a02d	-0.025833214
98	0xbced7615	-0.02898697
99	0xbbcbc37b	-0.0062183714
100	0xbb6ed3a2	-0.003644206
101	0x3d4895a4	0.048970833
102	0x3c8e39ff	0.017361639
103	0x3cc3ca6f	0.023900239
104	0x3d589460	0.052875876
105	0xbcbc0e8d	-0.022956157
106	0x3b3ba221	0.0028630572
107	0x3b5e08e3	0.0033879809
108	0x3d66f9a6	0.056390427
109	0x3a558e3e	0.0008146501
110	0xb8dc3dd6	-0.00010501935
111	0x3cb8ee22	0.022574488
112	0x3d664250	0.056215584
113	0xbd2a8220	-0.041628003
114	0xbd14db80	-0.036342144
115	0x38bdecbc	9.0563175e-05
116	0x3d81bb47	0.063345484
117	0x3bea71a7	0.0071546617
118	0x3d27461f	0.040838357
119	0xbd119328	-0.03554073
120	0xbd269b6b	-0.040675562
121	0xbd1edbda	-0.038783886
122	0xbba3a61f	-0.0049941684
123	0xbd1eebc6	-0.03879907
124	0xbcbcf751	-0.023067148
125	0xbbca9ba0	-0.0061831027
126	0x3c446498	0.011986874
127	0x3d306780	0.043067455
128	0x3c41a534	0.011819173
129	0xbbcf3a01	-0.0063240533
130	0x3d5c0f69	0.053725634
131	0x3d3ba9fe	0.045816414
132	0x3d3d1d13	0.046170305
133	0xbd42c9c3	-0.047555696
134	0x3d267ee1	0.040648345
135	0x3c76b9a5	0.01505891
136	0xbd7ba01a	-0.06143198
137	0xbd4f010e	-0.050538115
138	0xbd3a8133	-0.04553337
139	0x3ca78714	0.020450152
140	0x3cee9a7a	0.029126395
141	0xbd247904	-0.040154472
142	0xbc8bc248	-0.017060414
143	0xbc944daa	-0.01810344
144	0x3b22ac21	0.0024821835
145	0x3a90f7b9	0.0011060155
146	0x3cf82301	0.030290129
147	0xbc845163	-0.01615209
148	0x3cc381ec	0.023865663
149	0xbd0d6d61	-0.03452814
150	0xbd4b0303	-0.04956342
151	0x3c12c105	0.008957152
152	0x3a97209a	0.0011530102
153	0xbd2fa59c	-0.042882547
154	0xbd5d4343	-0.054019224
155	0xbd216a12	-0.039407797
156	0xbc39ff2b	-0.011352341
157	0x3d30b103	0.04313756
158	0xbd363c5d	-0.04449116
159	0xbd5aa747	-0.053382184
160	0xbba82750	-0.0051316395
161	0x3ceed89d	0.029156024
162	0xbcaa20c6	-0.02076758
163	0xbb1fd949	-0.0024390987
164	0xbd599b75	-0.05312677
165	0xbc8b4a16	-0.0170031
166	0x3d1f6204	0.038911834
167	0xbc634c97	-0.013873241
168	0x3d22691d	0.039651025
169	0xbbe51a04	-0.0069916267
170	0xbd5db6ee	-0.054129533
171	0x3d29f0e4	0.041489497
172	0x366c73d0	3.5234152e-06
173	0x3c4058e9	0.011739948
174	0x3cd04efa	0.025428284
175	0x3d498fb2	0.049209304
176	0xbd1d5928	-0.038415104
177	0x3c358f4a	0.011081526
178	0x3c606cd0	0.013697818
179	0xbd5efdba	-0.05444119
180	0x3d1ad78d	0.03780322
181	0x3d386602	0.045019157
182	0xbd4a8a0e	-0.049448065
183	0xbd31a3c0	-0.043369055
184	0x3c5516b8	0.013005905
185	0xbd17a4a4	-0.037022248
186	0xbd15c0b9	-0.036560748
187	0xbd12e15e	-0.03585946
188	0x3cab114f	0.020882277
189	0xbd5ea9c9	-0.05436114
190	0xbc8f1c44	-0.017469533
191	0x3c4c30ad	0.012462777
192	0xbc2c87d1	-0.010530428
193	0xbc9fb8ac	-0.019497238
194	0xbd2fb098	-0.042893022
195	0x3d245054	0.04011567
196	0xbcc96d88	-0.024588361
197	0xbd3670a3	-0.044541012
198	0x3ce39d1f	0.027784882
199	0x3cdbd749	0.026836054
200	0xbd7e996a	-0.062158026
201	0x3b9cac67	0.004781294
202	0x3cd68601	0.026186945
203	0x3cd6af55	0.026206652
204	0xbd790831	-0.060798828
205	0xbd42b884	-0.04753925
206	0xbd7e5dea	-0.062101282
207	0xbd5c3b5d	-0.05376755
208	0x3ca6cc9b	0.020361235
209	0xbc043a7e	-0.008070586
210	0xbc396684	-0.011315946
211	0xbcbe3479	-0.02321838
212	0xbbf81190	-0.007570453
213	0x3d5a471e	0.05329048
214	0xbd0c6566	-0.03427639
215	0x3794708c	1.7695384e-05
216	0xbb9ca70d	-0.004780656
217	0x3d2a173c	0.041526064
218	0x3b59219e	0.003313161
219	0xbd1865c2	-0.03720642
220	0xbd31c6b1	-0.043402378
221	0x3c4c88ef	0.012483819
222	0x3cd3aedd	0.025840217
223	0x3bdde4a0	0.006771639
224	0xbd4d3153	-0.050095867
225	0xbc39d033	-0.0113411425
226	0xbd27aca7	-0.04093614
227	0x3d477f9b	0.04870568
228	0xbb28c4cc	-0.0025752066
229	0xbc48fe0f	-0.012267604
230	0xbd56cdee	-0.052442484
231	0x3cb70571	0.022341462
232	0x3c6912b2	0.014225649
233	0x3d4e54a6	0.050373696
234	0xbc88ec1c	-0.016714148
235	0xbc75f225	-0.015011345
236	0xbd7841fa	-0.060609795
237	0xba642eef	-0.00087045034
238	0xbc328a50	-0.010897234
239	0xbce16f9e	-0.027519044
240	0x3bfd5671	0.007731252
241	0xbcff355e	-0.031153377
242	0xbd6895a2	-0.056783326
243	0x3d18e4ce	0.03732758
244	0x3b6cf480	0.0036156476
245	0xbd2ea59a	-0.0426384
246	0x3d279ffc	0.040924057
247	0x3c0abd70	0.008468017
248	0xbd2629a3	-0.04056705
249	0x3d402022	0.046905644
250	0xbd127509	-0.035756145
251	0x3b690756	0.003555735
252	0x3d3f7ba7	0.046748783
253	0xbcdc28af	-0.026874868
254	0x3cde0ed3	0.027106678
255	0x3caf71b0	0.021416515

linear2.bias f4 [3]
0	0x3c408840	0.0117512345
1	0xbcdad273	-0.026711678
2	0x3d2212fd	0.03956889
