model/model.pth (torch, 17216 bytes, 4 tensors)

linear1.weight f4 [256, 11]
000000 08 df 6c bd df 0b 53 3e 5a 8d 78 3e 41 e3 fc 3d
       -0.057829887 0.20609997 0.24272671 0.12348033
000010 71 2a 53 3e 19 3b eb 3d e7 87 71 be ed 73 21 3e
       0.20621659 0.11485881 -0.23586999 0.15766878
000020 7f fa 20 3d 63 5f 40 bd 68 b3 69 be 18 86 9a bd
       0.03930139 -0.046965968 -0.22822344 -0.075451076
000030 c8 32 06 be 19 54 8d 3d 5c fa f9 3d 6d ba 9e bd
       -0.13105309 0.06900806 0.122059554 -0.07750402
000040 f2 7e e7 3c 96 59 40 3e d3 51 0a 3e ac b9 5f 3e
       0.028258774 0.18784174 0.13507776 0.21848172
000050 ba 24 48 3e 6b d4 43 be fb 6a 86 be c0 bc d3 bc
       0.1954526 -0.19124 -0.26253495 -0.025846839
000060 b6 89 0f 3e 83 05 a5 3d c4 99 58 3d 0c 00 db 3d
       0.14017376 0.08057692 0.052881017 0.10693368
000070 3c 87 17 3d af e1 55 be 7f df aa bd 55 e5 10 be
       0.036994204 -0.20886873 -0.0834341 -0.14149983
000080 b3 4c 62 3e 29 90 8e 3e a0 c3 23 bc 0e 94 ad 3e
       0.22099571 0.2784436 -0.009995371 0.3390202
000090 08 c9 49 3e a9 0a eb bd e9 b1 19 3e 01 5d 98 3d
       0.19705594 -0.11476643 0.15009274 0.07439614
0000a0 cd fd 63 be a3 f2 1d be 51 8b cd 3d 3d e2 83 3e
       -0.22264786 -0.1542459 0.10036338 0.25758544
0000b0 e7 9e 2c 3e 5e d7 a7 3d 27 b7 03 3d 32 07 e6 3d
       0.16857491 0.08195375 0.03215709 0.11231841
0000c0 65 c8 36 3d dc 95 5b be 90 b5 0b bd 71 22 54 3d
       0.044624705 -0.21443886 -0.0341087 0.05179066
0000d0 6f 15 58 3d 69 29 34 be a2 27 d2 bc f7 cc 18 3e
       0.052754816 -0.17593922 -0.025653664 0.14921938
0000e0 27 07 8e be 0b fb b5 bc 48 8b 62 be 02 1a 82 3e
       -0.27739832 -0.022214433 -0.22123444 0.25410467
0000f0 43 8b 6d 3e ba e5 53 3e b4 ca 1f be b5 24 82 3e
       0.23197655 0.20693102 -0.15604669 0.2541863
000100 81 2a a2 3e 76 dd ff bd 8d 40 6f bd ce e2 39 3e
       0.31673053 -0.12493412 -0.05841117 0.18152925
000110 27 d6 8c be 52 62 52 3c 56 20 5a be 4a 0f 83 3e
       -0.27507135 0.012840824 -0.21301398 0.25597602
000120 9f 39 0b 3e 53 34 8c be 0a 53 05 3e 3d fa 0e 3e
       0.135962 -0.2738367 0.13019958 0.13962646
000130 4e 56 86 be 8f e1 2d 3e fc cb 96 3d cc 36 54 3e
       -0.2623772 0.16980575 0.07363126 0.20724028
000140 0b 92 6b 3e 40 8e 8c be ac 2e 03 be 9f 86 ef 3d
       0.2300493 -0.27452278 -0.12810773 0.11695599
000150 c6 7c 78 3e 67 e6 87 3c 9d ec 9e 3d 39 ab 97 bd
       0.24266347 0.016589357 0.07759974 -0.07405705
000160 3a 76 5a be e2 f7 92 3e 6e c9 2d be 00 d2 47 be
       -0.21334162 0.28704745 -0.1697137 -0.19513702
000170 ee 99 56 3e db 45 17 3e f0 07 50 3d 65 ea 8a be
       0.20957157 0.14772741 0.05078882 -0.27131954
000180 32 bb 1f be 75 0c 2d 3e 14 a8 90 3c b7 59 2e be
       -0.15598753 0.16899283 0.01765827 -0.17026411
000190 99 35 93 bc 12 b8 ea bd 36 50 ae 3c a5 c5 19 3e
       -0.017969893 -0.1146089 0.021278482 0.15016802
0001a0 b3 b7 29 3d ca 9e 8e 3e 77 20 1c 3e c7 57 26 bd
       0.041434955 0.2785552 0.1524676 -0.040611055
0001b0 0a 28 af 3d 47 77 5b 3e de 9b b4 3d 12 dc bf bd
       0.08552559 0.2143222 0.08818792 -0.09368147
0001c0 9b 84 60 be 5e e1 c5 3c a5 93 85 3e 8e b9 ad bd
       -0.21925585 0.024155315 0.26089206 -0.084826574
0001d0 d5 69 6a be ea 3a d8 3d a9 97 6f be f1 91 3b 3e
       -0.22891934 0.10558112 -0.23397698 0.18317391
0001e0 29 37 09 3e f0 5e a3 bd 39 1a 0a be 1b 0e 39 3d
       0.13399948 -0.07977092 -0.13486566 0.045179468
0001f0 95 71 7a 3e b7 03 61 be 04 f8 6c 3d 7c be 8b be
       0.2445739 -0.21974073 0.057853714 -0.27293766
000200 97 a1 96 be e0 4c a7 bc 1f 32 8d 3d f0 cf 61 bd
       -0.29420158 -0.020422399 0.068943255 -0.055129945
000210 50 66 86 bc 70 c4 3d 3d 06 6a 2c 3e f4 b6 d6 bd
       -0.016406208 0.046329916 0.1683732 -0.10484114
000220 5c 89 c1 3d b4 58 bf bd 54 fc 95 be e0 e4 39 3c
       0.09450027 -0.09343091 -0.29294074 0.011346072
000230 90 0a 61 be 3a ed 3f be 34 02 eb 3d 5f 7a 71 3e
       -0.21976686 -0.18742839 0.114750296 0.23581837
000240 22 f5 62 be 99 a0 24 be 96 af a3 3c 7c 18 49 3e
       -0.22163823 -0.16076888 0.019981187 0.19638246
000250 1d c7 c3 3c af ff 14 be 39 fd ea bd 74 bf c3 bd
       0.023898656 -0.1455066 -0.1147408 -0.09558001
000260 91 26 91 3e a5 90 bf bd bc 94 92 be 54 fe d3 3d
       0.28349736 -0.09353761 -0.286291 0.103512436
000270 74 80 ea bd 9e d4 72 be b1 d3 99 be d2 f7 8d be
       -0.11450282 -0.2371392 -0.3004432 -0.27728134
000280 9c 25 1d be e1 38 5f bd 3f eb db bd 10 64 8a be
       -0.15346378 -0.054497603 -0.10738229 -0.27029467
000290 c4 9c 2c 3d 88 2e 23 3e 40 96 97 3e 71 2b 7f 3c
       0.04214169 0.15935719 0.2960682 0.015574322
0002a0 ca 42 15 3d 87 60 3b 3d 40 d7 84 3c a6 53 50 be
       0.03644065 0.045746353 0.01621592 -0.2034441
0002b0 d0 a6 91 be d7 59 ba 3d e2 d1 8a be e6 72 8f be
       -0.2844758 0.09099167 -0.27113253 -0.28017348
0002c0 c5 70 bb bc a7 7c 4e 3e fd 49 8d bd 34 7a 84 3e
       -0.022880921 0.20164739 -0.06898878 0.25874484
0002d0 37 6f 98 be 42 94 38 3e c0 e0 28 3e 79 a6 47 3e
       -0.2977235 0.18025306 0.16491985 0.19497098
0002e0 2c 7a 61 3d 29 93 81 be 4d 83 9a 3e 91 db f7 3d
       0.055048153 -0.25307587 0.301783 0.12102426
0002f0 41 51 ca 3d de 85 58 bd 61 38 81 be ce c6 fe bd
       0.09878779 -0.05286204 -0.25238326 -0.12440263
000300 cd ad 9c be f0 eb 29 3e 53 df f0 bc 31 20 83 3e
       -0.3060135 0.1659391 -0.029403364 0.25610498
000310 0c 3e 4f 3d 2d 8b 80 3e da 85 f9 bc da b5 07 3e
       0.050596282 0.25106183 -0.030459333 0.13252965
000320 a5 6b 37 3d 10 19 4a 3e a6 8f 5b be 18 10 94 be
       0.044780392 0.19736123 -0.21441516 -0.2891853
000330 72 29 ea 3d b1 bb 26 3c 8d 5b 75 3e 2d 07 cf bd
       0.11433686 0.010176585 0.23960705 -0.101087905
000340 6b 93 e8 3d 44 97 ff 3d 86 b9 9b 3e 86 d0 4c be
       0.11356243 0.124800235 0.3041498 -0.2000142
000350 ef d6 c0 bd c2 fe 5b 3d 89 5a 00 3e 5d c6 c2 3d
       -0.09415995 0.053709753 0.12534536 0.09510491
000360 5f e8 7b bd 59 08 03 be 4b 92 52 3e 5c d4 ff 3d
       -0.061500903 -0.12796153 0.20563619 0.12491676
000370 1e b8 72 be d1 94 88 be 30 47 08 bd 2e 2b 74 3e
       -0.23703048 -0.26676038 -0.033271015 0.23844597
000380 8f de 4d 3e fd 45 27 be 4d 2b 98 be 04 f4 ad be
       0.2010443 -0.16335292 -0.29720536 -0.33975232
000390 fc a3 97 3e 32 9b fd 3d d7 c8 0a bd 7e 7c 5e 3e
       0.29617298 0.12383117 -0.033882942 0.21727178
0003a0 a4 32 5f 3e d0 6b 58 be c1 60 25 be b5 fb 8b be
       0.21796662 -0.21134877 -0.1615019 -0.27340475
0003b0 5f 43 7a bc de ae 6d be 2c 0e 8c 3d 3d e7 25 be
       -0.015274852 -0.23211238 0.068386406 -0.16201492
0003c0 0a 4a 8f bd b4 f9 90 3d c3 3f ca 3d 87 06 1b 3e
       -0.06996544 0.07078877 0.09875443 0.15139209
0003d0 a4 50 46 3e 70 41 85 be 80 10 fe ba 71 82 81 3e
       0.193667 -0.26026487 -0.001938358 0.2529483
0003e0 c7 f7 7e 3e d6 91 16 3e 18 bd 4f bd 56 e0 4f 3e
       0.24899207 0.1470407 -0.050717443 0.20300421
0003f0 4d 50 36 be db cf 6f bd 53 5f 73 be 28 c9 51 ba
       -0.1780407 -0.058547836 -0.23766832 -0.0008002692

linear1.bias f4 [256]
000000 b8 8d 78 3d 61 07 49 3d e1 53 34 3e 5a a7 2c bd
       0.06068203 0.049079303 0.17610122 -0.042151786
000010 ee bb f4 3d f1 c4 9a 3e cf 00 62 3e fe 1a 24 3e
       0.11949907 0.3022838 0.22070621 0.16025922
000020 de 9d 4a bd 86 01 26 3e 52 62 9d 3d 3b 46 91 bd
       -0.04946696 0.16211519 0.07684769 -0.070934735
000030 4e ad 84 be 8d ce 5a be b4 88 3a 3e da e2 07 3e
       -0.2591347 -0.21367855 0.1821621 0.13270131
000040 9b d8 2e 3e ef 4d af 3c 02 e9 13 3e 5e 85 ce bd
       0.17074816 0.021399466 0.14444354 -0.100840315
000050 1c e3 e4 bb 66 f1 88 be a4 4e 61 be 3a b0 49 bd
       -0.0069850814 -0.26746672 -0.22002655 -0.04924033
000060 5e be 36 3e fd 6e a6 be 74 68 92 3c 11 bd a2 3e
       0.17846057 -0.32506552 0.017872073 0.3178487
000070 67 db 82 3e df 7c 7a 3e c3 36 50 3e 24 a1 13 be
       0.25558016 0.24461697 0.2033339 -0.14416939
000080 65 c6 48 3e 56 37 89 be ae e0 a7 3e 1e c3 8e 3e
       0.19606932 -0.2680003 0.32788604 0.27883238
000090 2a f8 96 bd 1e 52 87 be 2c f6 94 be 93 f3 3b 3d
       -0.07371552 -0.26429838 -0.29094064 0.045886587
0000a0 9a b5 5f be f8 17 7f 3e 0b 49 c4 3d 3e 32 3b 3c
       -0.21846619 0.24911487 0.09584244 0.011425553
0000b0 1b d5 42 3d 57 4e b3 bd 60 12 59 be b0 2a 5b bd
       0.047566514 -0.087551765 -0.21198416 -0.053507507
0000c0 f2 73 3b 3e f9 a2 78 be 88 b8 6a be 4f 4b e2 3c
       0.18305948 -0.24280919 -0.22921956 0.0276238
0000d0 78 b8 56 3d b8 7d c8 3d 1c 60 53 be 13 a6 42 3e
       0.052422017 0.09789604 -0.20642132 0.19008665
0000e0 35 36 66 be 98 86 99 3e 33 1b 4e 3d b2 06 1a be
       -0.22481616 0.299855 0.050318908 -0.15041617
0000f0 31 1d 4a be 0d aa 85 be f1 11 3e be 17 4c 7c be
       -0.19737698 -0.261063 -0.18561532 -0.24638401
000100 a4 91 2f bc f6 53 20 3e 27 fb 82 be ba 1d 55 3e
       -0.010715876 0.15657029 -0.2558224 0.20812121
000110 41 58 9b bd cb 66 7f 3c e4 27 54 be c8 d8 61 be
       -0.075851925 0.015588473 -0.20718342 -0.22055352
000120 d5 88 13 3e 4d d1 df 3d 77 14 39 3e 05 2a 84 3e
       0.14407666 0.10928593 0.18074213 0.25813308
000130 b9 2c e3 3d 7a 73 3d be 8e e7 10 3e 2d a8 4d 3d
       0.110925145 -0.18501082 0.14150831 0.050209213
000140 0c eb 32 be d7 88 85 be 90 92 93 3e f7 5a ab be
       -0.17472476 -0.26080963 0.28822756 -0.33467838
000150 4c f8 d0 3d 52 27 74 3d 49 a7 f1 3d 1a 43 05 be
       0.10203609 0.05960781 0.11799485 -0.13013878
000160 49 8c 52 be 2e e8 89 be 8f 1b 69 3e 02 fe 8a 3e
       -0.20561327 -0.26934952 0.22764419 0.27146918
000170 fc d6 d8 3d 75 5b 3b 3e 05 ad 98 3e 91 f3 00 be
       0.1058788 0.18296607 0.29819503 -0.12592913
000180 53 79 ab bd c5 2c 93 be 0c c9 1f 3e ba a6 92 be
       -0.0837275 -0.28745094 0.15604037 -0.28642827
000190 73 cd 48 be 6b 2d 51 3e bd 18 5a be 88 bc be bc
       -0.19609623 0.20427482 -0.212985 -0.023283258
0001a0 f2 48 83 3d ce 06 9e be 85 cb ee bd 30 75 8a 3e
       0.064103976 -0.30864567 -0.11659912 0.27042532
0001b0 6e b2 8a bd 95 b9 54 be 7e 3d 69 3e a2 aa b0 3c
       -0.06772314 -0.20773919 0.22777364 0.021565739
0001c0 49 79 4c bd b7 7f 28 be 01 ad be bd 3c fa 58 3e
       -0.049920354 -0.1645497 -0.093103416 0.21189207
0001d0 a8 e0 6c 3e 49 b3 bc bd 96 51 72 be 11 bc 40 3e
       0.23132575 -0.092138834 -0.23663935 0.18821742
0001e0 89 83 3a bc 8e 4b 74 3e 18 11 6c be 52 bc ba 3d
       -0.0113838995 0.23856947 -0.23053396 0.091179505
0001f0 62 28 65 be 52 39 0b bc 2c a9 d0 bd 16 56 2f be
       -0.22378686 -0.008497553 -0.10188517 -0.17122683
000200 7f 43 0c 3e 92 3f 03 3d f1 f9 3c bd c3 f0 99 bc
       0.13697623 0.032043047 -0.0461368 -0.018791562
000210 c6 a8 52 be e2 e2 47 3e 43 35 51 3e 1f db a4 3d
       -0.20572194 0.19520143 0.20430474 0.080496065
000220 35 56 35 be e1 e0 9b bd 3f ee 92 3e d2 1c 04 3e
       -0.17708667 -0.076112516 0.28697392 0.12901619
000230 a6 c2 8b be bf 4a 80 3d 83 64 98 be 30 db 64 3e
       -0.27296942 0.06264257 -0.29764184 0.22349238
000240 51 51 51 3e 0b 1b 20 3e f2 e0 99 be 1c 72 af 3d
       0.20441176 0.15635316 -0.30054432 0.085666865
000250 ea 68 7e 3e 16 e4 8f be 9c e7 a7 3d ff 9f 88 3e
       0.24844709 -0.28103703 0.08198473 0.26684567
000260 54 d4 15 3e c2 ce 89 3e 6b 7a 34 3c d5 01 5b be
       0.14631778 0.26915556 0.011015515 -0.21387418
000270 20 8d 31 bd e1 f1 27 3e 26 c9 10 be 4c e6 41 be
       -0.043347478 0.16400863 -0.14139232 -0.18935508
000280 d7 a2 9f 3e 82 e7 fc 3d b2 3d 24 be 68 89 73 be
       0.31178924 0.12348844 -0.1603916 -0.23782885
000290 57 66 01 3e cc 59 ee 3d fb 7e 2e 3e ea a7 aa 3e
       0.12636696 0.11638221 0.17040627 0.33331233
0002a0 a5 24 4a be 4b 1e 45 be 78 ed 56 3e 17 d3 33 be
       -0.19740541 -0.19249837 0.20989025 -0.17560993
0002b0 36 5f 82 bd 35 7f 22 3e eb 5b c9 3d f7 a3 1d be
       -0.06365816 0.15868838 0.09831985 -0.15394579
0002c0 1a 9f 84 be ad 10 84 3e 2c ac 4c be e8 0e 2c be
       -0.25902635 0.25793973 -0.19987553 -0.16802561
0002d0 37 dd 81 be 88 a4 29 3e b3 c5 b7 3d d6 7f ab 3d
       -0.25364086 0.1656667 0.08973255 0.08373992
0002e0 5f b7 1f 3e a2 5e 8c 3e fd df a5 3d bd a0 14 be
       0.15597294 0.2741595 0.08099363 -0.14514442
0002f0 9d bc 19 be 8a 16 c4 3d bf 88 8f be b4 94 ca 3d
       -0.15013357 0.095746115 -0.28034016 0.09891644
000300 c7 3d 8d be 55 62 3c 3e de 49 40 bd 87 71 64 be
       -0.27586195 0.18396886 -0.046945445 -0.22308932
000310 c6 29 3f 3e d6 8d 7b 3e 13 b0 9c be a2 ea 82 3d
       0.18668279 0.24565825 -0.30603084 0.06392409
000320 1c 63 46 be 75 53 41 3e cc 72 8a bd 23 0f 0d be
       -0.19373745 0.18879493 -0.06760177 -0.13775305
000330 97 c9 b9 bb 28 2e b6 3c b6 44 15 be a5 d4 66 3e
       -0.0056697833 0.022238806 -0.14576992 0.22542055
000340 1f b3 6d 3e a2 17 9b 3e bc b9 80 be d6 64 03 be
       0.2321286 0.30291468 -0.25141704 -0.12831435
000350 8e 5a 9b be 92 3e a4 bd 76 47 89 3d 2f 62 cf bc
       -0.30342525 -0.08019747 0.06703083 -0.025315372
000360 c0 62 9c 3e 77 c1 8f 3d 3c c5 2d 3e b3 a2 6f be
       0.3054409 0.07019322 0.1696977 -0.23401909
000370 28 1b 64 3d f7 43 42 3e fb 36 57 be 5a a5 1d bd
       0.05568996 0.18971239 -0.21017067 -0.03848777
000380 e2 a7 97 bd 29 23 e6 bd c1 14 52 3e 52 76 7c 3d
       -0.07405068 -0.11237175 0.2051573 0.061636277
000390 4b 5a d8 bd aa 25 6a be 3a 48 0f 3e dd 21 5f 3e
       -0.10564097 -0.2286593 0.13992396 0.21790262
0003a0 50 a9 0d 3e 1c 10 84 bd 83 0b 38 3c 7e b0 2a be
       0.13834119 -0.06448385 0.011233213 -0.16668889
0003b0 92 71 58 be fa 2a 8e be 40 c8 d1 3c 51 cd 9c 3d
       -0.21137074 -0.27767164 0.025608182 0.076563485
0003c0 44 5f 8c 3e 72 b1 60 3e a6 30 86 be 04 7c d9 3a
       0.27416432 0.2194269 -0.2620899 0.0016592746
0003d0 fd f2 6e be d9 9c 91 be 69 ff 84 3e f6 a8 97 bd
       -0.2333488 -0.28439978 0.25976112 -0.074052736
0003e0 e2 61 51 3e c0 3a 73 be 4b bc 66 3c 9a 67 76 be
       0.20447496 -0.2375288 0.0140829785 -0.24062958
0003f0 86 3b d8 bd 7b 43 48 be 2f 78 6c be 78 8f 72 bd
       -0.10558228 -0.19556992 -0.23092721 -0.059218854

linear2.weight f4 [3, 256]
000000 23 67 01 bd ae 80 75 bc 25 cd 4e bd c9 12 79 3c
       -0.0315925 -0.014984293 -0.05048861 0.015202233
000010 62 a9 fd 3c 29 9c 26 bd 15 fd 14 bc 16 ff bf bb
       0.030964557 -0.04067627 -0.009093543 -0.005859266
000020 0f 6b ed bc 2d ec 10 3d a8 02 1e 3d 45 6f c4 bc
       -0.028981714 0.035381485 0.038576752 -0.023978839
000030 b8 4b 07 bc 9a 2a b7 3c 56 17 5f 3d 4e 7c e0 3c
       -0.008257799 0.022359181 0.054465614 0.027403023
000040 79 a9 51 bc e1 30 10 3d 95 b4 bc 3c 2a 0a b2 bb
       -0.012796753 0.035202865 0.023035327 -0.0054333406
000050 f6 57 10 3c c5 d2 6a bd bc 9c 62 3d a1 46 32 bd
       0.008810034 -0.05732991 0.055325255 -0.04352439
000060 7e 93 15 3d b8 07 ce bc 69 3d 51 bc 43 63 8b bd
       0.036517613 -0.025150165 -0.012770989 -0.06806042
000070 1b 46 22 bd af 41 64 bd b4 c0 85 3c 96 9d f2 b9
       -0.03961764 -0.055726703 0.01632724 -0.00046275248
000080 f8 b4 32 3d e7 14 c6 3c 6b 97 05 bd 47 04 71 bd
       0.043629616 0.024179889 -0.032615107 -0.05884197
000090 98 47 04 bd ae dd 01 3d 7a 09 67 bd c8 24 ad 3c
       -0.03229484 0.03170555 -0.056405522 0.021135703
0000a0 1e 93 88 ba e4 2b 27 3b 35 95 a5 3b 81 d3 9f 3b
       -0.0010419821 0.0025508339 0.0050531873 0.004877508
0000b0 9a f3 9e 3c 24 ee 08 3d 59 ed 2c 3c 18 e2 41 bd
       0.019403268 0.033430234 0.010554635 -0.04733476
0000c0 07 e3 33 bd d0 4b 86 bc f0 68 0d bc 6a b3 d8 bc
       -0.043917682 -0.016393572 -0.008630976 -0.026452739
0000d0 80 7e 28 3b c8 76 aa ba 7d 9c b9 3c bd 5c ca bb
       0.0025710166 -0.001300537 0.022657627 -0.006175606
0000e0 ae eb 02 3b a2 e8 3e bb 77 a0 18 bd c9 67 6d 3c
       0.0019976902 -0.002913036 -0.037262406 0.014490076
0000f0 04 fc 77 3c 90 9e 6a 3c 61 bd 41 3b 08 06 43 bd
       0.015135769 0.014320031 0.0029562342 -0.047613174
000100 62 53 a4 bd c0 18 41 3d 5c e6 75 3c e8 bd 98 3c
       -0.080237165 0.047142744 0.015008535 0.018645242
000110 7c d3 79 bc e6 a7 b7 bb 01 95 1a 3d 0c 63 14 3d
       -0.015248176 -0.005604732 0.037739757 0.03622727
000120 46 02 8a 3d f2 ed 86 3c 0e bf bb 3a c9 9b 9e 3c
       0.06738715 0.016470883 0.0014323907 0.019361394
000130 d9 e1 0d 3c 80 20 14 bb a9 c8 b8 3c 2f 99 67 bd
       0.008659803 -0.002260238 0.02255662 -0.05654257
000140 8c 18 b6 3c f0 aa 95 3c 52 91 ab 3c 72 7e 01 bd
       0.022228502 0.018269986 0.020943318 -0.03161473
000150 ed 18 18 bd 99 63 05 3d 04 af cb bc 66 f1 31 3d
       -0.037133146 0.032565687 -0.024863727 0.043443106
000160 9a fc 56 bd f8 1b cc 3c 35 ed 12 3c 1b de 4c 3d
       -0.052486993 0.02491568 0.008967687 0.050016504
000170 f6 8c cf 3c f2 c2 ea bc 60 22 dc bc 46 a3 06 3d
       0.02533577 -0.02865741 -0.02687186 0.032870553
000180 41 17 29 bd d3 97 49 3d bd c1 34 3d 98 15 b7 bc
       -0.041281942 0.049217056 0.044130076 -0.022349164
000190 8a 6b 7f bd d2 31 d9 3c 1d a4 81 bd 76 36 2e bd
       -0.062358417 0.026513014 -0.0633013 -0.042532407
0001a0 35 76 61 3d 3e 69 b4 bb 14 27 9a 39 3e 31 b9 3b
       0.05504437 -0.00550571 0.00029402284 0.005651622
0001b0 f9 95 11 3c 5a 54 3e bd 6b 20 0f bd a8 79 dc 3c
       0.008885854 -0.046467163 -0.034943026 0.026913479
0001c0 cd 28 5e bc 81 2d 2f bd d5 1d 1a bc 3e 35 53 bc
       -0.013559532 -0.042768005 -0.009406527 -0.012891112
0001d0 49 e3 86 bc 83 ed c5 3c 52 c8 78 bd 7b 0a 25 3d
       -0.0164658 0.024161106 -0.060737915 0.040293198
0001e0 9c c4 a4 bd c3 ae 8d ba 9e 03 14 bd d7 ae 31 bd
       -0.08045313 -0.0010809529 -0.036136262 -0.04337963
0001f0 82 0b 17 bd 77 ad 98 bd 86 d1 ba bc 2c 0b fa bb
       -0.03687621 -0.07454961 -0.022804987 -0.0076307263
000200 3b 9a fe 3c 64 36 71 bd da fd 9b 3c 57 b6 0a bd
       0.031079402 -0.05888976 0.019041944 -0.0338653
000210 18 93 b9 3c 5f a7 35 bd 96 ed 8c bc 93 aa 9d 3d
       0.022653148 -0.04434907 -0.017203134 0.0769855
000220 02 90 b5 bd d5 7e 04 bd 18 2a b8 3c 6e 7d 02 bd
       -0.08865358 -0.03234752 0.02248101 -0.0318579
000230 7b 97 ab 3a 7d 80 e5 bc ea 98 c3 3c 68 47 16 3d
       0.0013091409 -0.02801537 0.023876626 0.036689192
000240 f1 3c 49 bd 71 35 10 bd bf f2 96 bc d6 eb 9b bd
       -0.049130384 -0.035207216 -0.018426297 -0.076133415
000250 f0 f0 9e bd 16 b9 1d 3d d7 d8 28 bd f5 33 9a bd
       -0.07760799 0.03850659 -0.04122242 -0.07529441
000260 10 f5 2d bb 55 bc e7 bb bd 4f d9 3c 30 a5 ad bd
       -0.0026543774 -0.0070720115 0.02652728 -0.08478773
000270 8c e0 90 bd fd 10 2a bd 66 7b 87 bb 22 22 35 bd
       -0.07074079 -0.041520108 -0.0041345833 -0.044222005
000280 c8 aa 00 bd e9 6d 0b bd 53 26 40 bd e0 a6 7a 3b
       -0.03141287 -0.034040365 -0.04691155 0.0038246438
000290 f6 f8 31 bc c7 18 78 bd cc a3 45 3d df 7d 1b bd
       -0.01086258 -0.060570505 0.048251912 -0.037961837
0002a0 16 59 2c bd 43 55 5c 3b 23 4a 3e 3d 0c 53 61 bd
       -0.042077146 0.0033620156 0.04645742 -0.05501084
0002b0 7e fb 84 bd c8 41 86 bc 08 02 79 3c 48 da c4 bc
       -0.06493281 -0.016388789 0.015198238 -0.024029866
0002c0 3c e5 08 bc e5 74 bd bc a8 c3 3f 3d ee 3c a3 bd
       -0.008355435 -0.023127029 0.04681745 -0.07970606
0002d0 71 b5 ea 3c 13 a8 8b bb 91 70 19 3d 8b d9 9b 3c
       0.028650971 -0.0042619794 0.037460867 0.019024631
0002e0 47 10 c1 3c 4d c8 d6 bc e3 dc 04 3d 33 c3 84 3c
       0.023567332 -0.026218558 0.032437216 0.01620636
0002f0 7a 23 7d bd 68 ab 3f 3c b0 90 95 3b ca e8 fd bc
       -0.06180141 0.011698581 0.0045643672 -0.030994792
000300 ee 5b 40 3c 7f 36 9c bc fa 30 4c bc 97 df 9c bc
       0.011740668 -0.019068955 -0.012462849 -0.019149585
000310 07 b6 f0 bb 98 42 76 bd 5a 01 9e bb 9b 48 16 bd
       -0.007345918 -0.060122102 -0.0048219385 -0.036690336
000320 7e 07 39 bc 53 17 6b ba 54 db c3 bd 36 93 de bc
       -0.01129329 -0.0008968014 -0.09563318 -0.027169805
000330 6a d6 cf ba 5b 4c 2b 3b f7 bd d4 bc b2 9e 40 bd
       -0.0015856747 0.002613804 -0.025969489 -0.047026344
000340 6b 18 0e 3d bc 92 0e 3c 08 f5 45 bd 8b 82 57 3d
       0.034691256 0.008701976 -0.048329383 0.05261473
000350 fa f7 a4 3b 3a 4b 80 bd 5f 39 83 3d 63 39 b5 3b
       0.005034444 -0.06264348 0.06407427 0.0055305227
000360 9c 8e 83 bc 5e 9b e9 bb ab ba 63 bc 16 af 01 3b
       -0.016059212 -0.007129117 -0.013899486 0.0019788197
000370 72 f5 81 bd 90 0c 19 bd 35 1f bf 3d ef af 14 bb
       -0.06345643 -0.037365496 0.09332124 -0.0022687872
000380 38 99 1e 3c bd 7e 73 bd f3 5f c0 bc 5e c3 32 bc
       0.009680085 -0.05944704 -0.023483252 -0.010910837
000390 f5 93 b1 bd 49 13 97 bd 8b 99 66 bd 23 b2 81 bd
       -0.08670799 -0.07376725 -0.056298774 -0.06332805
0003a0 bf 7f 4b bd aa d0 a4 bc 77 f1 98 bd b8 0a 32 bd
       -0.049682375 -0.02011903 -0.07467931 -0.043467253
0003b0 74 33 31 3d c3 87 51 bc 61 a9 68 bc 06 51 fe 3b
       0.04326196 -0.012788716 -0.014200539 0.0077611236
0003c0 5a cd d7 bc 2c 50 fb bc 27 8a cc bc 38 d7 c1 bc
       -0.026343036 -0.030677877 -0.02496822 -0.023662195
0003d0 50 b9 bb 3c 0a d1 9c 3c 29 b0 a9 3c b4 cd f7 bc
       0.022915512 0.019142646 0.020713883 -0.030249454
0003e0 8a 0e b6 bc fa 42 44 3c c0 14 79 bc 1c b3 8a 3c
       -0.02222373 0.011978859 -0.015202701 0.01693111
0003f0 b1 52 36 3d c1 4d 24 bd f7 30 ef bc 2d a9 aa bc
       0.044512454 -0.040113214 -0.029198153 -0.020832622

linear2.bias f4 [3]
000000 55 80 fa bc 96 9b 30 3d 34 4c 40 bd
       -0.030578772 0.04311713 -0.046947673
